CNN_3layers_MNIST/MNIST_CNN/model.ckpt (torch_old, 119116 bytes, 14 tensors)

layer1.0.weight f4 [16, 1, 5, 5]
0	0xbef88605	-0.4853975
1	0xbe8eb509	-0.27872494
2	0xbeb3ad04	-0.35092938
3	0xbec85901	-0.39130405
4	0xbebb4647	-0.36577055
5	0xbe37e04b	-0.17956655
6	0xbdf9236d	-0.1216496
7	0xbdba661f	-0.09101509
8	0xbdb7823d	-0.08960388
9	0xbec2bb31	-0.3803344
10	0x3e5d60da	0.21618977
11	0x3e57d97e	0.2107906
12	0x3e615a94	0.22007209
13	0x3c23ad1c	0.009990003
14	0x3e05dea8	0.13073218
15	0x3d9302c2	0.071782604
16	0x3daa0e01	0.08303452
17	0x3ce28c9b	0.027654937
18	0xbcba17b5	-0.022716383
19	0xbcb302ca	-0.021851916
20	0xbdd08aa3	-0.10182693
21	0xbde612f9	-0.112340875
22	0x3dd4d13d	0.103914715
23	0xbe3ccb66	-0.18436965
24	0x3e63ce98	0.22246778
25	0x3e42446b	0.18971412
26	0xbe80f317	-0.25185463
27	0xbdadf8b7	-0.08494704
28	0xbdad9b40	-0.08476877
29	0xbe127bbd	-0.14305015
30	0x3ced61f1	0.028977366
31	0xbe4ac3ab	-0.19801204
32	0x3e1ebb69	0.15501179
33	0xbdac34ea	-0.0840853
34	0xbe2c00f5	-0.1679724
35	0xbe184f29	-0.14873947
36	0xbdbdae1d	-0.09261725
37	0x3e2ad828	0.1668402
38	0x3db3dc75	0.08782283
39	0xbeb2ba2e	-0.3490767
40	0xbd85b9fc	-0.06529614
41	0xbc9917e5	-0.018688152
42	0x3ec7dda2	0.3903628
43	0xbd5ab488	-0.053394824
44	0xbe83b686	-0.25725192
45	0x3e289c7c	0.16465944
46	0x3e3803d5	0.17970212
47	0xbdab03d5	-0.0835034
48	0xbe2d2af5	-0.16910918
49	0xbee10b33	-0.43953857
50	0xbe0f2209	-0.13977827
51	0x3e6dc8cc	0.23221129
52	0x3de6c6b6	0.1126837
53	0xbe75509a	-0.23956528
54	0xbc7569e4	-0.01497886
55	0x3dea4a29	0.11439926
56	0x3e6dcf3a	0.23223582
57	0x3de90ad2	0.11379017
58	0xbdf43bd4	-0.11925474
59	0xbedb7ec3	-0.4287015
60	0xbda9b78d	-0.08286963
61	0x3d251c62	0.04031027
62	0x3c4d4e60	0.012530893
63	0xbc77f6ca	-0.015134523
64	0xbe8e6f5d	-0.27819338
65	0x3e136f4a	0.14397922
66	0x3e2a1149	0.16608156
67	0x3e9dfbf5	0.3085629
68	0xbe7e3e4a	-0.24828449
69	0xbecaf07e	-0.39636606
70	0xbc77eed3	-0.015132624
71	0xbdd7e1bc	-0.10541102
72	0xbe2ca136	-0.16858372
73	0xbed84d36	-0.42246407
74	0x3d6a9663	0.057272326
75	0x3c60ba9b	0.013716365
76	0x3d36f7f8	0.044670075
77	0xbe402926	-0.18765697
78	0xbe76f6bb	-0.24117558
79	0x3e8562ef	0.26052043
80	0xbdfcda4c	-0.12346324
81	0xbe546788	-0.20742619
82	0xba049a72	-0.00050584145
83	0xbe5b6fba	-0.21429339
84	0xbe8a6f2f	-0.2703795
85	0xbce14f15	-0.02750353
86	0xbe36fe6c	-0.17870492
87	0xbc21643b	-0.009850557
88	0xbd9540ec	-0.072877735
89	0xbe0d1822	-0.13778737
90	0x3dea224d	0.114323236
91	0xbd14fc13	-0.03637321
92	0xbdc48ef1	-0.095975764
93	0xbebd4fa0	-0.36974812
94	0xbddad7bd	-0.1068568
95	0x3de7fd25	0.1132758
96	0x3ea10662	0.31450182
97	0x3e5bf84f	0.21481441
98	0xbeb29241	-0.34877208
99	0xbe31c10d	-0.173588
100	0x3e0b9ffc	0.13635248
101	0xbdf9e65f	-0.12202143
102	0x3e46e015	0.19421418
103	0xbeac1ec7	-0.3361723
104	0xbdae1e21	-0.085018404
105	0x3de783f9	0.11304469
106	0x3df961bc	0.121768445
107	0xbeccba1c	-0.3998574
108	0xbe868d1e	-0.2627954
109	0x3dfc5f3a	0.123228505
110	0x3de007a4	0.10938957
111	0x3eee7356	0.4657237
112	0x3eac14b9	0.3360956
113	0x3da98c46	0.08278708
114	0xbda3a90d	-0.07991228
115	0xbe224c76	-0.1584948
116	0x3c32b30a	0.010906944
117	0x3c58aa70	0.013224229
118	0x3e3a91cd	0.18219681
119	0x3ddd928c	0.10818967
120	0xbe03c7fa	-0.12869254
121	0xbe0074a7	-0.125445
122	0xbddf1c96	-0.10894124
123	0xbbbfda22	-0.005854861
124	0x3e13e20e	0.14441702
125	0x3ea034b3	0.31290206
126	0xbcc5d9c1	-0.024151685
127	0x3e11b6c6	0.14229879
128	0x3e009ff7	0.12561022
129	0xbe3b2b56	-0.1827825
130	0xbd892d23	-0.06698062
131	0xbe2357a4	-0.15951401
132	0xbe581458	-0.2110151
133	0xbe73e2ee	-0.23817036
134	0xbe43668e	-0.1908209
135	0xbe444a6d	-0.19169016
136	0xbe9dde90	-0.30833864
137	0xbe25385d	-0.16134782
138	0xbd4f38df	-0.050591346
139	0x3e88c722	0.26714426
140	0xbec662b3	-0.38747177
141	0xbdc70970	-0.09718597
142	0xbd09a3eb	-0.03360359
143	0x3e99a9b9	0.300123
144	0xbd97e4aa	-0.07416661
145	0xbf05d5fc	-0.5227964
146	0x3db6dd9f	0.089289896
147	0x3d83c8b9	0.06434769
148	0x3e0502a3	0.12989287
149	0xbd9b42ce	-0.07581101
150	0xbebe5608	-0.37175012
151	0xbe820aa1	-0.25398734
152	0xbe937cf3	-0.28806266
153	0xbe82f866	-0.25580138
154	0x3e4b1ef8	0.19836032
155	0xbd81e134	-0.06341782
156	0xbe07fe00	-0.13280487
157	0xbe432cae	-0.19060013
158	0xbea8b763	-0.32952413
159	0xbecd407c	-0.4008826
160	0xbe159a63	-0.14609675
161	0xbdbb0552	-0.09131874
162	0xbb3a4b68	-0.0028426293
163	0x3d0aa7df	0.0338515
164	0xbea0499b	-0.31306157
165	0xbe0762d3	-0.13221292
166	0x3dc735ef	0.09727084
167	0x3dda8aa5	0.106709756
168	0x3deb0dcf	0.11477243
169	0xbcde3842	-0.027126435
170	0x3e9350f2	0.28772694
171	0xbdaaefb3	-0.083465
172	0x3e0aff20	0.13573885
173	0x3e15a6de	0.14614436
174	0x3e522cf2	0.20524958
175	0xbcef4ae6	-0.029210519
176	0x3e7eb6b2	0.2487438
177	0x3e45f092	0.19330052
178	0x3d9afe43	0.07568028
179	0xbdf656f1	-0.120283015
180	0x3d58f7cc	0.052970693
181	0x3d8b5558	0.068033874
182	0x3e0989a9	0.1343142
183	0xbe3c69c1	-0.18399717
184	0x3e2c6d6f	0.1683862
185	0xbdfb7f35	-0.12280122
186	0x3e3835a9	0.1798922
187	0x3ca7bb03	0.020474916
188	0x3e30492b	0.17215411
189	0x3dc0f278	0.09421247
190	0xbd96e5fa	-0.07368083
191	0x3e2de212	0.1698077
192	0x3e3ccb95	0.18437035
193	0x3e80acae	0.25131744
194	0xbe4441de	-0.19165751
195	0x3de9beaa	0.114133194
196	0x3dc41de7	0.09576016
197	0x3e0a7b3c	0.13523573
198	0xbdc2a9d6	-0.0950505
199	0xbf06bc15	-0.5263074
200	0x3d20cd48	0.03925827
201	0x3dafa9ce	0.085773095
202	0x3e880973	0.2656971
203	0xbca97e4b	-0.020690104
204	0x3bc594e0	0.00602971
205	0xbe14f51b	-0.14546625
206	0xbd580c9d	-0.052746404
207	0x3e0249ca	0.12723461
208	0x3e2384e2	0.1596866
209	0xbc7862cb	-0.015160273
210	0xbe1c5166	-0.15265426
211	0xbe12c002	-0.14331058
212	0x3e058cf9	0.13042058
213	0x3e66989d	0.22519155
214	0x3e69e797	0.22842251
215	0xbe078e0f	-0.13237785
216	0xbf11d23b	-0.5696141
217	0xbe9784a0	-0.29593372
218	0xbe4a81f0	-0.1977613
219	0xbd6778b5	-0.0565116
220	0x3e8f8567	0.28031465
221	0x3d3a6dc6	0.045514844
222	0xbe4fa75f	-0.20278691
223	0xbe3fef36	-0.18743595
224	0xbde41142	-0.11136104
225	0xbecb6ed9	-0.39733008
226	0x3bbefc59	0.005828422
227	0xbe56ae2d	-0.2096488
228	0xbdd633bd	-0.10459087
229	0x3ccffd46	0.025389325
230	0xbcdeb165	-0.027184198
231	0xbebe8365	-0.3720962
232	0xbebc6ce5	-0.3680183
233	0x3c2d98a5	0.010595475
234	0xbe2049fd	-0.15653224
235	0xbe272874	-0.16324025
236	0xbedb7fc5	-0.42870918
237	0x3d2aefa5	0.04173245
238	0x3d85e8a4	0.06538513
239	0x3e0fe001	0.14050294
240	0xbe8e8639	-0.2783678
241	0xbe17ac7d	-0.14811893
242	0x3e77a1a2	0.24182752
243	0x3e3433f9	0.17597951
244	0xbccd86f5	-0.025088767
245	0xbec7f9d1	-0.39057782
246	0x3d9c2704	0.07624629
247	0x3d5ce277	0.05392691
248	0x3e42c72e	0.19021294
249	0xbd127aa9	-0.03576151
250	0x3e2d42ed	0.16920061
251	0x3d252b6e	0.04032462
252	0xbdee19aa	-0.11625989
253	0xbe0467c9	-0.12930216
254	0xbd532b53	-0.05155499
255	0xbd919490	-0.07108414

layer1.0.bias f4 [16]
0	0x3e4557db	0.19271795
1	0xbc08fabc	-0.008360561
2	0xbd807044	-0.06271413
3	0x3dad569a	0.084637836
4	0xbd90d4ef	-0.07071864
5	0xbe699997	-0.22812496
6	0xbe628538	-0.22121131
7	0xbcb6f530	-0.022333711
8	0xbd40023b	-0.046877127
9	0x3bcf4ebc	0.0063265245
10	0xbdc7c303	-0.097539924
11	0x3cd0ea6a	0.025502402
12	0x3cebb83a	0.02877437
13	0xbe2c7356	-0.16840872
14	0x3ec1f724	0.37883866
15	0x3e6d233b	0.2315797

layer1.1.weight f4 [16]
0	0x3ec2f19d	0.3807496
1	0x3f27c934	0.65541387
2	0x3ee9e9e7	0.45686266
3	0x3f58ff6c	0.8476474
4	0x3ebfb673	0.37443885
5	0x3f410a21	0.7540608
6	0x3f27b3ce	0.65508735
7	0x3e800e7d	0.25011054
8	0x3f0d4825	0.5518821
9	0x3ec2ff6c	0.38085496
10	0x3ebecaa0	0.37263966
11	0x3ec9fb91	0.39449742
12	0x3eb855d8	0.36002994
13	0x3f4a089f	0.78919405
14	0x3e9a12bf	0.30092427
15	0x3e9ccc54	0.3062464

layer1.1.bias f4 [16]
0	0xbd600546	-0.05469253
1	0xbe4d684c	-0.20059317
2	0xbe6b1653	-0.22957735
3	0xbeb8fa72	-0.36128575
4	0xbf0b36f2	-0.54380715
5	0xbe4ff9cc	-0.20310134
6	0xbe97166b	-0.2950929
7	0xbee4c8bf	-0.44684407
8	0xbd5696b7	-0.052389827
9	0xbde6c0b7	-0.11267226
10	0xbe082f7e	-0.13299367
11	0xbe24ce6e	-0.16094372
12	0xbe069397	-0.13142239
13	0xbe69aa3e	-0.22818848
14	0xbeab24a9	-0.33426407
15	0xbee25b4e	-0.44210285

layer1.1.running_mean f4 [16]
0	0xbd5baea0	-0.053633332
1	0xbe402e7a	-0.1876773
2	0xbe57a446	-0.21058759
3	0xbe13d078	-0.14434993
4	0xbd0b85e6	-0.034063242
5	0xbed7c877	-0.4214513
6	0xbee69551	-0.45035794
7	0x3dd9c999	0.10634155
8	0xbe04af2c	-0.12957448
9	0xbe872e98	-0.26402736
10	0xbdfc8c20	-0.12331414
11	0xbe836b92	-0.25668007
12	0xbdb9839a	-0.09058304
13	0xbeb21ffe	-0.34790033
14	0x3eb51f2d	0.35375348
15	0x3e869195	0.26282945

layer1.1.running_var f4 [16]
0	0x3e8bce06	0.2730562
1	0x3e112b9b	0.1417679
2	0x3e575294	0.21027595
3	0x3e54ab14	0.20768386
4	0x3d40dfcd	0.047088433
5	0x3e5cf596	0.21578059
6	0x3e93c99b	0.2886475
7	0x3e0541d9	0.130134
8	0x3dcf65c8	0.10126835
9	0x3eb8bdad	0.3608221
10	0x3d0b98c6	0.034081243
11	0x3e9773c0	0.29580498
12	0x3e23522f	0.1594932
13	0x3e1ef553	0.15523271
14	0x3cfade6b	0.030623635
15	0x3d04a68f	0.032385405

layer2.0.weight f4 [32, 16, 5, 5]
0	0xbe4ba475	-0.19886954
1	0xbde4a493	-0.111642025
2	0x3e61747e	0.22017094
3	0x3eab4947	0.33454344
4	0x3e53bceb	0.20677535
5	0xbe462d39	-0.19353189
6	0xbde45bd8	-0.1115033
7	0x3e8c24a8	0.27371716
8	0x3e553448	0.20820725
9	0x3e54fdb9	0.20799913
10	0x3e59e021	0.21276905
11	0x3e22c2f3	0.1589468
12	0x3ddae0f2	0.10687436
13	0xbd9b3a40	-0.0757947
14	0x3dafc881	0.08583165
15	0xbcc5def8	-0.024154171
16	0xbde27ed6	-0.11059348
17	0xbdbd15a5	-0.09232644
18	0xbe6c4f69	-0.23077168
19	0xbe2a7c16	-0.16648898
20	0x3dd2d182	0.10293867
21	0x3e8cab9c	0.27474678
22	0x3c5ef4a3	0.013608131
23	0x3e14e68a	0.14541069
24	0xbd43cd76	-0.047803365
25	0x3d49d41d	0.049274553
26	0x3dfd349e	0.123635516
27	0x3e987b0e	0.29781383
28	0x3e350927	0.17679273
29	0xbb852bf0	-0.0040640756
30	0xbb62b44a	-0.0034592324
31	0x3d2d3f2a	0.042296566
32	0x3e618a60	0.22025442
33	0x3dfa6b25	0.122274674
34	0xbc7d5697	-0.015462539
35	0x3aea9896	0.0017898257
36	0x3e223bc2	0.15843108
37	0x3ab58b01	0.001385063
38	0x3e226c01	0.15861513
39	0xbd8ed5f0	-0.06974399
40	0x3d6e54fc	0.058186516
41	0xbdcd5f61	-0.10027958
42	0x3d12d02f	0.03584307
43	0xbaa42d93	-0.0012525789
44	0x3ceed4d6	0.029154222
45	0xbd8bc06c	-0.06823811
46	0xbd341a33	-0.043970298
47	0xbe18d1ed	-0.1492383
48	0xbdcf5864	-0.10124281
49	0x3e11ebf8	0.14250171
50	0x3d037aad	0.032099415
51	0xbe593338	-0.21210945
52	0xbce837ad	-0.02834686
53	0xbdabb928	-0.08384925
54	0xbeacf561	-0.3378096
55	0xbd964a77	-0.07338422
56	0xbe059926	-0.13046703
57	0x3e2a7a0f	0.16648124
58	0x3dac1200	0.08401871
59	0xbe8e033b	-0.2773684
60	0x3e181769	0.1485268
61	0xbc94598e	-0.01810911
62	0x3e1d348a	0.15352073
63	0x3e6d495b	0.23172514
64	0x3ca30b3c	0.019902818
65	0x3dfe040d	0.124031164
66	0xbc06ec07	-0.008234984
67	0x3e43b046	0.19110212
68	0x3e866a5f	0.2625303
69	0x3e707b5b	0.23484556
70	0xbe0f94e8	-0.14021647
71	0xbeb00256	-0.34376782
72	0x3e181db4	0.14855081
73	0x3df3796c	0.11888394
74	0x3e51913d	0.2046556
75	0x3d9bb130	0.07602155
76	0xbe7c1666	-0.2461792
77	0xbd2236c5	-0.039603014
78	0x3e68835e	0.22706363
79	0x3e003c8c	0.12523097
80	0x3cb81b3e	0.022473928
81	0x3d43afdf	0.047775146
82	0x3cbc3122	0.022972647
83	0x3dd57ba0	0.1042397
84	0x3e5867f2	0.21133402
85	0x3e55c8f0	0.20877433
86	0x3e26609e	0.16247794
87	0x3e052d86	0.13005647
88	0x3df39b46	0.118948504
89	0x3e08323d	0.13300414
90	0x3e17cfb1	0.14825322
91	0xbd02bb47	-0.031916883
92	0xbc25c477	-0.010117642
93	0xbdb29af9	-0.08720965
94	0x3de1d553	0.110270165
95	0xbd861c33	-0.06548347
96	0xbd55ac55	-0.0521663
97	0xbe4dd017	-0.20098911
98	0xbe000d4b	-0.12505071
99	0x3d57dd92	0.05270154
100	0xbe34f4b8	-0.17671478
101	0xbe3f41e1	-0.18677475
102	0xbe141047	-0.14459334
103	0x3e0af20f	0.135689
104	0x3e573a94	0.2101844
105	0xbe84e625	-0.25956836
106	0xbc0289bc	-0.007967409
107	0x3dd68e95	0.10476414
108	0x3ddb0944	0.10695127
109	0x3e108349	0.14112581
110	0x3cc0bde5	0.023528049
111	0xbcbba8cc	-0.022907637
112	0xbe058766	-0.13039932
113	0x3d80fe76	0.062985346
114	0xbdb30a23	-0.08742168
115	0xbe02711d	-0.12738462
116	0xbd86931f	-0.0657103
117	0xbd192047	-0.037384298
118	0xbdd0775f	-0.10179018
119	0xbd295475	-0.04134031
120	0xbe090fd9	-0.13384952
121	0xbe0fb1a7	-0.14032613
122	0xbe68e086	-0.22741899
123	0x3e058345	0.13038357
124	0x3bfab154	0.0076505337
125	0xbe10cb0b	-0.14139955
126	0xbbe66896	-0.0070315106
127	0x3cb4f647	0.02209009
128	0xbdec273e	-0.11530922
129	0xbdb871db	-0.09006091
130	0xbd7e595e	-0.062096946
131	0xbda3147f	-0.07962894
132	0x3dbe5de6	0.092952535
133	0xbdcc2b28	-0.09969169
134	0xbe901880	-0.28143692
135	0x3dca97ec	0.09892258
136	0xbd0a3932	-0.033745952
137	0x3da1247c	0.07868287
138	0xbdd55d1c	-0.1041815
139	0xbe300c29	-0.17192139
140	0xbd48d4a6	-0.049030922
141	0x3d58672f	0.05283278
142	0x3c95d9c9	0.018292325
143	0xbddf4f1f	-0.10903763
144	0xbe6ffee5	-0.23437078
145	0x3e3cb3da	0.18427983
146	0xbda3db9e	-0.08000873
147	0xbc8c6787	-0.01713921
148	0xbc863de3	-0.016386932
149	0x3cbdc759	0.023166345
150	0xbdf2465f	-0.118298285
151	0xbe12327a	-0.14277068
152	0x3e2b8f0d	0.16753788
153	0x3e931dcb	0.28733668
154	0x3e2af4fe	0.1669502
155	0x3e8290ee	0.25501198
156	0x3e593134	0.21210176
157	0x3e9fc605	0.31205764
158	0x3d079842	0.03310419
159	0xbba4bffa	-0.005027768
160	0x3e759694	0.23983222
161	0xbd8787fc	-0.06617734
162	0xbe062d39	-0.13103189
163	0xbc1e361d	-0.009656456
164	0x3d8e5186	0.06949143
165	0xbd9eb00f	-0.07748424
166	0xbe8dd95f	-0.27704903
167	0xbbd50a81	-0.0065014963
168	0x3d6e3bdb	0.05816255
169	0xbccb438b	-0.02481248
170	0xbd3c81fe	-0.046022408
171	0xbdf5a480	-0.119942665
172	0x3d1df173	0.038560342
173	0x3df1870f	0.117933385
174	0x3c6de333	0.014519501
175	0x3d382687	0.044958618
176	0x3d751571	0.0598349
177	0xbd59d73d	-0.053183783
178	0xbe107814	-0.14108306
179	0xbe479f21	-0.19494297
180	0x3d8b0eb0	0.06789911
181	0x3dde50a8	0.10855228
182	0x3dafe7f1	0.08589161
183	0xbccd2b79	-0.025045143
184	0xbc3a2411	-0.011361138
185	0x3d4fe974	0.050759748
186	0x3ddb8bf4	0.10720053
187	0x3e0a9d35	0.13536532
188	0x3ea50176	0.32227677
189	0x3e261860	0.16220236
190	0xbdeea322	-0.11652209
191	0x3e3f503c	0.1868295
192	0x3e974085	0.29541412
193	0x3e46faae	0.19431564
194	0x3dd85835	0.10563699
195	0xbed955d1	-0.42448285
196	0x3d947497	0.072488
197	0x3e956a38	0.291826
198	0x3daa0bc2	0.08303024
199	0xbd62a023	-0.0553285
200	0xbf0a68ad	-0.5406597
201	0xbec5406c	-0.38525712
202	0xbeac781a	-0.3368538
203	0xbdfa3087	-0.12216287
204	0xbcfb74ee	-0.030695405
205	0xbe161b18	-0.14658773
206	0xbe3ed583	-0.18636136
207	0xbe421c54	-0.18956119
208	0x3dd7d2cf	0.105382554
209	0x3e875573	0.2643238
210	0x3e1354e6	0.14387855
211	0xbd89fe6c	-0.0673798
212	0xbe025de8	-0.12731135
213	0xbe48bbc3	-0.19602875
214	0x3d8d7e91	0.06908906
215	0x3debbfee	0.11511217
216	0xbe104199	-0.14087524
217	0xbe6ff67d	-0.23433872
218	0xbe444d4e	-0.19170114
219	0xbdcfec35	-0.10152475
220	0xbcc63d9a	-0.024199296
221	0xb7e0fbcc	-2.6820133e-05
222	0xbdc231c4	-0.09482148
223	0xbd507b34	-0.050898746
224	0xbd0bbabe	-0.034113638
225	0x3e0d9c40	0.13829136
226	0xbdbd5131	-0.09244002
227	0x3e1ce4c7	0.15321647
228	0x3dd1bbae	0.10240875
229	0xbe05664d	-0.13027306
230	0xbd0d2e49	-0.03446797
231	0x3d6380ff	0.055542942
232	0x3e3c4488	0.18385518
233	0xbb674b2a	-0.0035292604
234	0xbe79a0ce	-0.24377748
235	0x3dc352a2	0.09537245
236	0x3cb5fb80	0.022214651
237	0xbd5e556b	-0.05428068
238	0xbd8a407c	-0.06750581
239	0xbe70e895	-0.23526223
240	0xbcd14cee	-0.025549378
241	0xbe37cd75	-0.1794947
242	0xbda37d2a	-0.079828575
243	0xbc8a3712	-0.016871963
244	0x3c0657a0	0.008199602
245	0xbe0e6f98	-0.13909757
246	0xbdcb6f17	-0.09933298
247	0xbd9253f1	-0.07144917
248	0x3d58f6a7	0.0529696
249	0x3c052eb7	0.0081288135
250	0xbdaa7f39	-0.08325047
251	0xbc092a09	-0.008371838
252	0x3eacece6	0.3377449
253	0x3e77ef43	0.24212365
254	0x3cdd2b0d	0.026998067
255	0xbe04f12c	-0.12982625

layer2.0.bias f4 [32]
0	0x3c96a025	0.01838691
1	0x3ba0e871	0.0049105217
2	0x3cdf4cf3	0.027258372
3	0x3ced8b69	0.02899714
4	0xbd107931	-0.035271827
5	0x3daee862	0.08540417
6	0xbd88fb2b	-0.066885315
7	0xbc277deb	-0.010222892
8	0x3bd1456d	0.00638645
9	0x3ce60a75	0.028081158
10	0x3bfa7889	0.0076437634
11	0xbc42ce31	-0.01188998
12	0xbd45cf34	-0.048293307
13	0xbc62f605	-0.013852601
14	0x3cc75dba	0.024336684
15	0x3bdc73a6	0.0067276536
16	0x3c6c79a2	0.014433296
17	0xbce27920	-0.027645648
18	0x3d2149a8	0.039376885
19	0xbcb3a377	-0.021928532
20	0xbd9ecb05	-0.07753567
21	0xbd45e4d8	-0.048313946
22	0x3da8f958	0.082506835
23	0xbc849e91	-0.016188892
24	0xbc8398fe	-0.016064163
25	0x3b013cff	0.0019720194
26	0x3bd9e5d8	0.006649714
27	0xbb6a76c0	-0.0035776347
28	0xbadda275	-0.0016909378
29	0x3d675d6b	0.056485575
30	0x3d728ce1	0.059216384
31	0xbd489f3a	-0.048979975

layer2.1.weight f4 [32]
0	0x3f7ac564	0.97957444
1	0x3f804221	1.0020181
2	0x3f79538b	0.973931
3	0x3f3d99f9	0.7406307
4	0x3f475ca2	0.7787572
5	0x3f7748f4	0.9659569
6	0x3f916406	1.135865
7	0x3f8636e1	1.0485498
8	0x3f474ccc	0.7785156
9	0x3f5e7da7	0.8691048
10	0x3f492354	0.7856953
11	0x3f90edc0	1.1322556
12	0x3f5dc1d3	0.8662388
13	0x3f47f01a	0.7810074
14	0x3f65c82d	0.8975857
15	0x3f2aca83	0.6671526
16	0x3f60dee9	0.87840134
17	0x3f33272f	0.69981664
18	0x3f24a355	0.64311725
19	0x3f3d33b5	0.73907024
20	0x3f41a10d	0.7563637
21	0x3f54c0dd	0.83106786
22	0x3f90e441	1.1319658
23	0x3f374420	0.71588326
24	0x3f87dbb4	1.0613923
25	0x3f446ada	0.7672554
26	0x3f32e834	0.69885564
27	0x3ec78065	0.38965145
28	0x3f253c0f	0.6454477
29	0x3f801c56	1.0008647
30	0x3f711898	0.9417815
31	0x3f6fd6f4	0.9368737

layer2.1.bias f4 [32]
0	0xbed005a4	-0.40629303
1	0xbec603a1	-0.38674644
2	0xbf23f9b3	-0.64052886
3	0xbea1ab1e	-0.31575865
4	0xbef30d55	-0.4747111
5	0xbef36b0e	-0.47542614
6	0xbf0ca60a	-0.54940856
7	0xbea224b8	-0.3166864
8	0xbe9806bd	-0.2969264
9	0xbf08d5fd	-0.5345152
10	0xbe842a2b	-0.25813422
11	0xbf0bdcca	-0.5463377
12	0xbece7d67	-0.4033005
13	0xbecbc219	-0.39796522
14	0xbecad306	-0.39614123
15	0xbed5367c	-0.4164313
16	0xbee5061a	-0.44731218
17	0xbeae0a7b	-0.3399237
18	0xbeb0e8d8	-0.34552646
19	0xbf079b78	-0.529716
20	0xbecb8a25	-0.39753833
21	0xbefff675	-0.4999272
22	0xbeaa33b4	-0.3324257
23	0xbee1431a	-0.43996507
24	0xbf071939	-0.5277286
25	0xbee44bf8	-0.4458921
26	0xbec41d77	-0.3830373
27	0xbe91ec8f	-0.28500792
28	0xbedb6c94	-0.42856276
29	0xbf179c92	-0.5922328
30	0xbee3d2be	-0.4449672
31	0xbef1dfa5	-0.4724094

layer2.1.running_mean f4 [32]
0	0xbea058c1	-0.31317714
1	0x3ec58642	0.38578993
2	0xbcccaebc	-0.024985664
3	0xbf3b9e54	-0.73288465
4	0xbf2f21c9	-0.6841093
5	0xbeab7fa1	-0.3349581
6	0xbe22d795	-0.1590255
7	0xbdb46ebd	-0.08810184
8	0xbde1d165	-0.11026267
9	0xbf1d7e9e	-0.6152133
10	0x3ed6d433	0.4195877
11	0xbf12f3c2	-0.57403195
12	0xbf2abf0d	-0.6669777
13	0x3e773893	0.24142675
14	0xbe30e8b7	-0.17276274
15	0xbe818f5d	-0.2530469
16	0xbf160e6a	-0.58615744
17	0xbf2d1b1b	-0.67619485
18	0x3e34ad33	0.17644195
19	0xbefce20e	-0.49391216
20	0xbf1c3f33	-0.61033934
21	0xbeb1d995	-0.34736314
22	0xbebe101c	-0.37121665
23	0x3e028ace	0.12748262
24	0xbed833a6	-0.42226905
25	0xbed3b973	-0.41352424
26	0xbf057514	-0.5213177
27	0x3e35e6c3	0.1776381
28	0x3df26fc4	0.11837724
29	0xbdac8b7f	-0.08425044
30	0xbe1cd62c	-0.15316075
31	0xbf09fbb0	-0.5389967

layer2.1.running_var f4 [32]
0	0x3f1f0560	0.62117577
1	0x3f48c69b	0.7842805
2	0x3f2400da	0.640638
3	0x3f2e9076	0.6818918
4	0x3f363456	0.7117361
5	0x3f0b0c3d	0.5431555
6	0x3f3e5730	0.7435179
7	0x3f70821f	0.9394855
8	0x3f2b0dff	0.6681823
9	0x3f6e6ef4	0.9313805
10	0x3f2a6234	0.66556096
11	0x3f3589e8	0.70913553
12	0x3f1db7c9	0.6160856
13	0x3f5492d8	0.83036566
14	0x3f1709b8	0.58999205
15	0x3f35ca9c	0.7101228
16	0x3f00f525	0.5037406
17	0x3f25b9ca	0.64736617
18	0x3f723cc7	0.9462399
19	0x3f15bac7	0.58488125
20	0x3ed4e4d7	0.4158084
21	0x3ef6dd5c	0.4821576
22	0x3f45a94b	0.77211446
23	0x3f2d02a8	0.6758218
24	0x3f25f83f	0.6483192
25	0x3f08c5f4	0.5342705
26	0x3f06341e	0.52423275
27	0x3f0d38b0	0.55164623
28	0x3f04ca77	0.51871437
29	0x3f0bce57	0.54611725
30	0x3f1c8743	0.61143893
31	0x3f3b2ecf	0.731183

fc.weight f4 [10, 1568]
0	0xbe3f4217	-0.18677555
1	0xbe2834e8	-0.16426432
2	0x3e031690	0.12801576
3	0xbe4b3c18	-0.19847143
4	0xbe984786	-0.29742068
5	0x3d309275	0.043108422
6	0xbd9f1eba	-0.077695325
7	0xbddef6b5	-0.108868994
8	0xbcdaa886	-0.026691686
9	0xbda5a266	-0.08087616
10	0x3d81b6b1	0.06333674
11	0xbd9b6bd8	-0.07588929
12	0xbd52a5b1	-0.051427547
13	0xbd9edbdf	-0.07756781
14	0x3cc9223b	0.024552455
15	0x3e07d8c6	0.13266286
16	0x3e0acc9d	0.13554616
17	0x3c3bb96a	0.01145778
18	0x3c8e1d42	0.017347936
19	0x3e74fb42	0.23923972
20	0xbede61c6	-0.4343397
21	0xbe1260bb	-0.14294712
22	0x3dbdf7d9	0.09275789
23	0x3cda678c	0.026660703
24	0xbe20689e	-0.15664908
25	0xbe0eb62a	-0.13936678
26	0xbde3a107	-0.11114698
27	0x3bfbf077	0.0076885778
28	0x3db977bf	0.09056043
29	0xbda4b52d	-0.08042369
30	0xbe731d47	-0.23741637
31	0xbebf51b0	-0.3736701
32	0xbeb31870	-0.34979582
33	0xbe7e045a	-0.24806347
34	0xbe7eea2f	-0.24894021
35	0x3b8857fa	0.0041608782
36	0xbe95e939	-0.29279497
37	0xbe590081	-0.21191598
38	0xbe3071d2	-0.17230919
39	0xbdab63ae	-0.08368622
40	0xbe22c2bd	-0.158946
41	0xbe5598b9	-0.2085904
42	0xbe00ff04	-0.1259728
43	0xbe40eeb4	-0.18841058
44	0xbe9297be	-0.28631395
45	0xbda7c69a	-0.08192177
46	0xbdfad668	-0.12247926
47	0x3df43056	0.11923282
48	0xbd7cdecc	-0.061735913
49	0xbccfb2fc	-0.025353901
50	0xbe92a42d	-0.2864088
51	0xbd820ef1	-0.06350506
52	0xbd51fc8c	-0.051266238
53	0xbb74ba6d	-0.0037342564
54	0xbd436c2d	-0.047710586
55	0x3d04d025	0.032425065
56	0x3a65205b	0.0008740478
57	0xbd7272a4	-0.05919136
58	0x3d64c373	0.055850457
59	0x3c757e53	0.014983731
60	0x3e0cf618	0.13765752
61	0xbd9728de	-0.07380842
62	0x3cde0db4	0.027106144
63	0x3d6b53ca	0.057452954
64	0x3da99132	0.08279647
65	0x3e2be73c	0.16787428
66	0x3d33b983	0.04387809
67	0xbe8e168f	-0.27751586
68	0x3e10f90d	0.14157505
69	0xbd821470	-0.063515544
70	0x3cf5a49b	0.029985717
71	0x3e6ca63d	0.2311029
72	0x3dec3ee4	0.11535433
73	0xbe71e1f4	-0.2362135
74	0x3e177dff	0.14794157
75	0x3e82c646	0.25541896
76	0x3c8d5366	0.017251682
77	0x3e5007ba	0.20315447
78	0xbdf85abe	-0.12126683
79	0xbcbe03d6	-0.023195188
80	0xbc16b4f4	-0.009198416
81	0x3e7dece7	0.24797402
82	0x3d320af9	0.043467496
83	0x3dc6c171	0.09704865
84	0xbe2a2a98	-0.1661781
85	0xbda9b16c	-0.08285794
86	0xbe96a11b	-0.2941979
87	0x3cefb257	0.029259844
88	0xbdb2ff52	-0.08740105
89	0x3dbbb14e	0.091646776
90	0xbd1f9d99	-0.038968656
91	0xbd942657	-0.07233875
92	0x3cd45bd9	0.025922703
93	0xbe270981	-0.16312219
94	0xbee7dc87	-0.45285437
95	0xbf0c8094	-0.54883695
96	0xbdf85c56	-0.12126987
97	0xbe42a237	-0.19007193
98	0xbb2b6257	-0.0026151144
99	0x3e171e78	0.14757717
100	0xbd924d97	-0.07143705
101	0xbdd513c6	-0.10404162
102	0xbd34d44c	-0.044147775
103	0xbd6ed880	-0.05831194
104	0x3dbc4954	0.09193674
105	0x3d11b882	0.03557635
106	0xbe090f1f	-0.13384674
107	0xbe5d33e0	-0.2160182
108	0xbd0d6dee	-0.034528665
109	0x3d0f0266	0.034914397
110	0xbe50d886	-0.20395097
111	0xbd2fba7f	-0.042902466
112	0xbc76d669	-0.015065768
113	0xbe8199c2	-0.2531262
114	0xbd1236c4	-0.03569676
115	0xbe4816c4	-0.19539934
116	0xbe0741db	-0.13208716
117	0xbedcccce	-0.43125004
118	0xbdb939c6	-0.090442225
119	0xbde1cb5c	-0.11025116
120	0xbd936cad	-0.07198463
121	0xbde073b0	-0.10959566
122	0xbdbeacde	-0.093103155
123	0xbe5d9ab4	-0.21641046
124	0xbe4a78ef	-0.19772695
125	0x3b785fbd	0.0037898861
126	0xbcdfc64c	-0.027316235
127	0x3e0ff705	0.14059074
128	0x3cf459a2	0.029827897
129	0x3d9d505f	0.07681345
130	0x3e6c0f9c	0.2305283
131	0xbdb390d9	-0.08767862
132	0x3c4112f4	0.011784304
133	0xbc6349b6	-0.0138725545
134	0xbdbecc2d	-0.09316287
135	0xbe0abeee	-0.13549396
136	0xbe3c1008	-0.1836549
137	0x3e1c19cc	0.15244216
138	0xbe58bb00	-0.21165085
139	0xbe5b3eaf	-0.2141063
140	0xbb0eadd7	-0.0021771097
141	0x3d3d9868	0.046287924
142	0xbec981ae	-0.3935675
143	0xbea130dc	-0.3148259
144	0xbe9ba9c7	-0.30402967
145	0xbe3435fa	-0.17598715
146	0x3c0b098d	0.008486164
147	0x3e34a1d0	0.17639852
148	0xbe55f4c6	-0.20894155
149	0xbe1577c6	-0.14596471
150	0xbe1768c1	-0.14786054
151	0x3d5065a2	0.050878175
152	0x3da98a15	0.0827829
153	0x3b8498a8	0.0040465184
154	0x3bb4def0	0.0055197403
155	0xbd50cc70	-0.050976217
156	0xbe280872	-0.16409472
157	0xbea4653f	-0.32108495
158	0xbde951d7	-0.11392563
159	0x3e349249	0.17633928
160	0xbe82fde5	-0.2558433
161	0xbd97fe48	-0.07421547
162	0xbcc367cb	-0.023853203
163	0x3ddc8259	0.10767049
164	0xbe4f809c	-0.20263904
165	0xbdd34aa9	-0.10316975
166	0x3dca86d3	0.09888997
167	0xbdaa76d3	-0.08323445
168	0x3d819036	0.06326334
169	0x3db7b1fa	0.08969493
170	0x3e2e82ac	0.17042035
171	0xbc508cf9	-0.012728923
172	0x3c89c1e3	0.016816085
173	0x3de2c7d3	0.1107327
174	0x3da8f8c1	0.08250571
175	0x3d27070f	0.040778216
176	0x3e4211fa	0.1895217
177	0x3e966596	0.2937438
178	0xbd30aaa5	-0.04313149
179	0x3d3a01bf	0.04541182
180	0xbd2f12d6	-0.042742573
181	0xbe49613c	-0.19665998
182	0x3d720e80	0.05909586
183	0x3e1dc73a	0.1540803
184	0x3e938198	0.2880981
185	0x3af284c1	0.0018502699
186	0xbf1c847c	-0.61139655
187	0xbec248d9	-0.37946203
188	0xbebf5222	-0.3736735
189	0x3e4ff6de	0.20309016
190	0x3e09bcc2	0.13450912
191	0xbeab42fe	-0.33449548
192	0xbf3f9cd4	-0.74848676
193	0xbf10b1d8	-0.5652137
194	0xbe834e71	-0.25645784
195	0x3e399291	0.18122317
196	0x3e6ea085	0.23303421
197	0xbe0b66dc	-0.13613456
198	0xbe0361e6	-0.12830314
199	0x3d926e7e	0.07149981
200	0xbcd8bffb	-0.02645873
201	0xbc42ebf0	-0.011897072
202	0x3d9e22b4	0.07721463
203	0xbdd0c270	-0.10193336
204	0xbda76ac5	-0.081746615
205	0xbd1b0757	-0.037848797
206	0x3d1acd0a	0.037793197
207	0x3ca70946	0.020390164
208	0xbdcaf6d2	-0.099103585
209	0xbd721fa3	-0.059112202
210	0x3e13f067	0.14447175
211	0xbc95643d	-0.018236274
212	0x3e4d684b	0.20059316
213	0x3dcadf79	0.09905905
214	0xbe82cc3d	-0.25546446
215	0xbd85e227	-0.06537276
216	0x3e0d757e	0.13814351
217	0x3b9ce463	0.004787968
218	0xbceb7282	-0.028741125
219	0xbd5065cc	-0.05087833
220	0xbea9a0b4	-0.3313042
221	0x3d6a96d0	0.057272732
222	0x3d2bf1c7	0.041978624
223	0x3dcbaa5d	0.099446036
224	0x3d8b4220	0.06799722
225	0xbe1e81e1	-0.15479232
226	0x3e8ce469	0.27518013
227	0x3e1aad1b	0.15105097
228	0x3c7a248f	0.015267505
229	0x3c23d30d	0.009999049
230	0x3c5783cd	0.013153982
231	0xbe3d8c8b	-0.18510644
232	0xbe0538bb	-0.13009922
233	0xbc31ae47	-0.010844774
234	0x3d8807e8	0.06642133
235	0xbd44c9f4	-0.04804416
236	0xbda3a275	-0.079899706
237	0x3d82ad7e	0.06380747
238	0xbd88842a	-0.06665833
239	0xbe97a947	-0.29621336
240	0xbe701436	-0.2344521
241	0xbd945847	-0.072434
242	0xbd57864b	-0.052618306
243	0x3e472b52	0.19450119
244	0xbdcc90f8	-0.09988588
245	0xbcdc9e55	-0.026930967
246	0xbe246e9d	-0.1605782
247	0xbd816c65	-0.06319503
248	0x3db596b7	0.08866637
249	0xbe0edf3f	-0.13952349
250	0xbd877e15	-0.06615845
251	0xbe0e2c72	-0.13884142
252	0xbdac4613	-0.08411803
253	0x3b9eeda2	0.0048501054
254	0xbe4328dc	-0.19058555
255	0x3e630ca6	0.22172794

fc.bias f4 [10]
0	0x3dd939da	0.106067374
1	0x3e1cb525	0.15303476
2	0xbd1ebc1d	-0.038753618
3	0xbc946dd9	-0.018118786
4	0xbda98f2a	-0.082792595
5	0x3c36906e	0.011142833
6	0xbd6bd69f	-0.057577725
7	0xbb231145	-0.002488212
8	0xbd718768	-0.058967024
9	0xbc194afa	-0.009356255
